SGHN/modelsave_symnetG/Train0-symnetG.1401.tar (torch, 154737 bytes, 60 tensors)

ms.GradM1.ps.K f4 [32, 50]
00000000: a4e0 07be 4bbc 1bbd 5eee 683d b6d9 9f3c
00000010: 706f f83d c978 f73d 8f2c 6fbd 6220 75be
00000020: 91a3 c03c 05b7 2abe a5b8 d43d 4e39 cb3d
00000030: 3fcf c9bc a1f0 e83d 43ee 133e 0f04 39bc
00000040: 36e5 0ebe c0ba 4cbe 6065 b23d 69e2 903c
00000050: 63ed 573d c60d 09be 8e57 893c 6ec3 f33c
00000060: f808 713d e656 99bd d7b9 bcbd 62f1 19bd
00000070: 2e97 d03d d4bd 9a3d ea7f 373e 1023 4cbd
00000080: e000 babd afbc 753d 3593 8fbc a3ee 663d
00000090: 5d39 0b3e 93db e0bc 6a56 b93c 096a ad3b
000000a0: 4a2b d23b c339 a73d 5f05 35bd 6313 863d
000000b0: acae 053c 491a 103e 2fc1 70be 8f83 2abc
000000c0: f9b5 92bd eb2f 4b3d c6a7 ba3d 8ff5 403d
000000d0: e4ea 503b cb16 e8bc 911d da3c c5c2 d7bd
000000e0: 0469 8dbd edfb d83d c4df 1e3e 490c a73e
000000f0: 02b6 9cbd 07a0 42be c512 b63d f038 9abd
00000100: 5ff2 acbd 3bd7 9a3d b551 da3d cdad 103e
00000110: d886 3ebe 37e2 6d3e b6a3 0abe 4173 883d
00000120: 8ec7 3bbe 8827 92bc 81c6 88bc 8456 7e3d
00000130: 13a3 d4bd 2541 a33d 4164 65bc e492 203e
00000140: 3548 00bd 19f8 223d b074 f9bd b190 dbbb
00000150: 04aa b73d e045 88bc a0ec e83d 491b 953d
00000160: 3929 c23c c786 063e 661a 42be fa43 a0bc
00000170: f782 6abd 7655 b4bd be50 013d db7d 483d
00000180: 3e7f 0b3e 3815 27bd 5951 793c aec0 2abc
00000190: 18cb 72be 81c3 1fbd f745 153d b017 d53d
000001a0: a995 cb3d c9ff 673d 4689 cabb 1b9f 763d
000001b0: 6444 2cbc 1440 bdbd ee1f 8d3d a46f 99bd
000001c0: c08d fabb f944 62be 6184 b33d 6af1 c6bc
000001d0: 5528 253c 93fc 86bd 736a 5bbd 0fe8 73bc
000001e0: de7e c1bd b1b3 0fbd 6d8f 4c3e 3ee8 293c
000001f0: ffba 9e3c 2076 ca3d 0ec8 9f3d 8aba eb3c
00000200: 492d 683b a66e 1abe f4c1 cdbd d8a9 db3d
00000210: 2420 cb3b b556 b23d 05b9 093e a7f5 87bd
00000220: a233 5b3d 7248 01bb 59d0 15bd d90d debd
00000230: 3276 693c 2417 a0bd 5f4d 7dbc 92e5 1b3d
00000240: c0f2 2cbc 485f 1c3c c9d9 32bd c34b 8d3b
00000250: 384d 58bb 9186 16bc 3bf3 503b c30c b0bb
00000260: b01e d83b 4eb7 bbbd f04a 72be ccff 113c
00000270: b326 93bd 1eff 6cbd f10e de3c 10cb 813b
00000280: ca6a ce3d 8ee3 07be dea6 18bd 8ccd 813b
00000290: 00c9 c33d 04bc 5bbb ebd7 ac3d c518 5d3d
000002a0: e497 133d 9be0 963c fc54 83bc ff77 133d
000002b0: 9cd5 e1bc a584 d8bc be8c f13c f7c5 24be
000002c0: 7fb7 393d a9d6 e5bc e655 98bd 725e 033d
000002d0: 4b46 333e 3644 57bd c52b 303e de65 013d
000002e0: 1d6d bdbd f4d7 e7bc 8703 303e 6a2e ec3d
000002f0: 9b56 e33c 17f9 02be 91b9 f5bd d03f 1bbe
00000300: c2f5 9aba fd70 1b3d dae1 e43d a77d 803d
00000310: a00c b0ba 49f4 003d 9b6d 94bb 314d 813d
00000320: c1d5 2d3d 342e f2bc 7ea2 1c3b e51c b73d
00000330: 495b 9a3d f09a cabd 26a6 c7bc 4b23 debd
00000340: 97f8 b33d 84c0 e73c 8824 453e f1d7 b23d
00000350: 3e56 03be b2c6 273e e375 4fbd ffcc f2bd
00000360: d27e 653d 2502 813d b7b7 9dbd c7bd 213d
00000370: cc0c 3e3c 87ef b33d 9c6d cebd b73a 66ba
00000380: 2a80 00bd 1855 ed3d 4c7d 853a 1786 9f3c
00000390: 7ee1 9b3b 2257 2a3e bccb 203c eb67 febd
000003a0: 5ab1 2dbd 9759 2abd 5a03 d1bd c179 553d
000003b0: c39f d0bd d768 323e f0bf a23d 3472 febd
000003c0: a6dd f5bd 8301 4ebe 21dc 0bbb e8c8 fcbd
000003d0: e96d 373e 6779 a03d 1a57 a63d 0a31 dbbb
000003e0: 7a9b e4bb d34e eb3d 2872 563d c360 89bc
000003f0: d03e 34bd aa56 f43c 84bc 103e e3b9 943c
-0.13269287 -0.038021367 0.05686795 0.019512992 0.1213063 0.12083585 -0.058392104 -0.23938134
0.023515495 -0.16671379 0.10386781 0.099230394 -0.024634955 0.11374021 0.14446358 -0.011292472
-0.13954625 -0.19993114 0.08710742 0.017686086 0.052716624 -0.1338416 0.016765382 0.029756274
0.058846444 -0.07487278 -0.09215134 -0.037583716 0.10185085 0.07555738 0.17919889 -0.049838126
-0.09082198 0.059994396 -0.017526248 0.056379925 0.13596101 -0.027448451 0.022624213 0.0052921814
0.006413852 0.08165314 -0.044194575 0.065466665 0.008159321 0.14072527 -0.23511194 -0.010407343
-0.07163615 0.049606245 0.091140315 0.047109183 0.0031878287 -0.028331181 0.026625426 -0.10535196
-0.06904796 0.10594926 0.15515047 0.3262656 -0.07651903 -0.19006358 0.08890299 -0.07530391
-0.08444666 0.07560583 0.10660116 0.141288 -0.18606126 0.23230825 -0.13539013 0.06662608
-0.18337843 -0.017841116 -0.016696217 0.062094226 -0.103826664 0.0797141 -0.014000953 0.15681034
-0.031318862 0.039787386 -0.121804595 -0.006700598 0.08967975 -0.016634881 0.11373258 0.07280595
0.023701297 0.13137351 -0.18955383 -0.019563664 -0.057253804 -0.08805363 0.031571142 0.04894815
0.13622758 -0.04079172 0.015217149 -0.010421915 -0.23710287 -0.039004806 0.036443677 0.10404909
0.09940655 0.05664042 -0.006180915 0.06021033 -0.0105143525 -0.092407376 0.06890856 -0.07491997
-0.0076462924 -0.22096623 0.08765484 -0.024285037 0.010080417 -0.065911435 -0.053568315 -0.01488687
-0.09448026 -0.035083476 0.19976588 0.010370312 0.019376276 0.09885812 0.07801829 0.028775472
0.0035427383 -0.15081272 -0.10046759 0.107257545 0.0061989 0.08707944 0.13449486 -0.06638651
0.053516038 -0.0019727019 -0.03657565 -0.10842485 0.014249371 -0.07816914 -0.015460341 0.038060732
-0.010555923 0.009544201 -0.043664727 0.00431201 -0.003300501 -0.009187357 0.0031883258 -0.005372615
0.006595455 -0.09165822 -0.23661399 0.008911084 -0.07185116 -0.057860486 0.027106734 0.0039609745
0.10078962 -0.13270399 -0.037268512 0.0039612707 0.09559822 -0.0033528814 0.084396206 0.0539787
0.036033526 0.018417647 -0.016031735 0.03600311 -0.027567677 -0.026430437 0.029486056 -0.16091143
0.04534101 -0.02805646 -0.07438259 0.032072492 0.17507283 -0.052555285 0.17204197 0.03159129
-0.09249327 -0.028301217 0.17188846 0.1153229 0.027751258 -0.12790333 -0.119982846 -0.15161061
-0.0011822509 0.03794955 0.1117589 0.06273966 -0.0013431497 0.03148297 -0.0045296676 0.06313551
0.04244018 -0.029563047 0.0023900564 0.08941058 0.075369425 -0.09892833 -0.024371218 -0.10846575
0.08787649 0.02829004 0.19252217 0.08732594 -0.12825868 0.1638439 -0.050649535 -0.11855506
0.05602915 0.06299237 -0.077010565 0.039487626 0.011599731 0.087859206 -0.100795 -0.0008782553
-0.031372227 0.11588496 0.0010184436 0.019473119 0.0047571054 0.16634801 0.009814199 -0.124221645
-0.042405464 -0.041589346 -0.102057174 0.052118067 -0.10186722 0.17422806 0.079467654 -0.12424126
-0.12005167 -0.20117764 -0.0021340924 -0.12343007 0.17913021 0.07835656 0.08122082 -0.0066891955
-0.006976542 0.11489644 0.05235496 -0.016769772 -0.044005215 0.02982648 0.14134413 0.018155044

ms.GradM1.ps.a f4 [50]
00000000: 1afb 353e 13ec 043e 9e26 ef3d 6437 2a3e
00000010: d5c5 5a3e a5e1 483e 026c 303e ffa4 883e
00000020: 7243 d03d d540 823e 9fc5 fe3d dc63 6d3e
00000030: b816 1b3e 6fce 6f3e 4759 303e 9741 583e
00000040: aa2e f23d d8a7 e23d 957a 4c3e 02e9 433e
00000050: dd2b 1e3e 4453 d23d 4640 613e 8963 96b8
00000060: e5ff e33d d793 473e 4039 593e 0409 0e3e
00000070: 5b65 143e 9037 833e f0f7 743e ca8f 623e
00000080: 3d57 2b3e d7c7 df3d 5dd2 e03d 8b57 063e
00000090: e183 773e 177c ff3d 3588 533e 79cc 283e
000000a0: 4ba4 3b3e 4bbd c93d 1888 b43d 03c0 4d3e
000000b0: 58ec cc3d 7986 bc3d 5fd2 6e3e 5880 a33c
000000c0: a271 2e3e 4ec3 2a3e
0.17771569 0.1298068 0.116772875 0.16622692 0.2136453 0.19617327 0.17228702 0.26688382
0.10169114 0.25440088 0.12440037 0.23182625 0.15145385 0.23418592 0.17221557 0.2111877
0.11825307 0.1106717 0.19968636 0.19131854 0.1544642 0.10269788 0.21997175 -7.171097e-05
0.111327924 0.1948999 0.21213245 0.13870627 0.14491789 0.25628328 0.23922706 0.22125164
0.16732498 0.10926788 0.109776236 0.13119332 0.24171402 0.1247484 0.20657428 0.1648425
0.18324392 0.09850558 0.0881502 0.20092778 0.100060165 0.09205336 0.23322438 0.01995866
0.17035535 0.16676065

ms.GradM1.ps.b f4 [50]
00000000: acaf 83bb 1896 b8bc 78fb b2bc 29bb aabc
00000010: 6c72 8ebc a648 8fbc 380b ab3b d78f 4ebd
00000020: 54f7 08bd 76d4 3fbc f826 233c 2ac1 38bc
00000030: c4a1 2cbc 1a73 acbc ef19 98bc 4b26 b2bc
00000040: 3adf 2cbc 138e a0bb 2721 61bc b5f9 ccbc
00000050: 6a79 28bc 0198 613c 9ad8 febc b348 1fbd
00000060: 48b0 d7bc 0a74 a1bb 3513 4cbc b5b9 b7bc
00000070: c066 a6bc 5fd9 d0bc f0f3 a8bc 3ee7 7fbc
00000080: 6679 70bc 8d67 8fbc f151 f3bc 448c a2bc
00000090: efab 78bb b9fe 213c 29d6 3fbc 03e7 97bc
000000a0: 3c4e 36bc 9230 ca3b cd56 08bd 51ae a4bb
000000b0: c3fd ef3a 2ad1 a83c 12d4 b6bc 41a5 2ebd
000000c0: 2b6b 94bc 392a abbc
-0.0040187445 -0.022532508 -0.021848425 -0.020841198 -0.017388545 -0.017490696 0.0052198432 -0.050430145
-0.033438995 -0.0117083695 0.009958021 -0.011276523 -0.010536615 -0.021050978 -0.018567054 -0.021746775
-0.010551268 -0.004899749 -0.013740814 -0.025021413 -0.010282854 0.013769151 -0.031109143 -0.03888769
-0.026329175 -0.004927163 -0.012455751 -0.02242742 -0.020312667 -0.025494276 -0.020624131 -0.015619097
-0.014677381 -0.017505432 -0.029702159 -0.019842274 -0.0037944277 0.009887391 -0.011708775 -0.018542772
-0.011127051 0.006170341 -0.033285905 -0.005025663 0.001830988 0.02060755 -0.02231792 -0.042638067
-0.018117508 -0.020894157

ms.GradM2.ps.K f4 [32, 50]
00000000: 7f59 ac3d 63cc 91be 438b 063e ad94 123e
00000010: 8357 cc3e 756c b9bd 45cf a83d f619 dc3e
00000020: 465c 86be 9727 af3e bd35 7f3d f95a 5e3e
00000030: 0cd8 403e 6ede 753e 5300 9bbd e149 30be
00000040: 6a83 d13c 12b8 abbd b00f 033c 1b3d 5a3d
00000050: 757f a63d c9f6 fd3d 7879 5fbd 4bc3 ca3e
00000060: 26da 243d ca73 0c3e 1460 edbd 5fe4 d93d
00000070: 10cf 63bd 187e e0bc 9d42 35bd f9ed c0bd
00000080: 0b6c c43d d640 973e a304 c0bd 9d37 a23c
00000090: 4782 a93d fb3d 5bbd 4a21 213a 9a20 06be
000000a0: 318e d5bd 4ec4 943c f835 a83d f0b0 3b3d
000000b0: b233 fcbd 739b 54be b395 3a3c 3386 6e3d
000000c0: ae26 a83c 6c89 0bbe eb2d 89be 06e9 ccbd
000000d0: e002 2f3e 8346 d2bc 97a5 c0be 924b a43d
000000e0: d989 063e 9227 37be 68c1 6c3e d921 49be
000000f0: 0573 b3bd c479 5dbb 577d 12be 8e3d df3c
00000100: 63bf 073e 003e 8e3c bda4 213e 7b31 cc3d
00000110: da7d 8bbe c5a2 e5bd 8872 abbd 93f0 bbbd
00000120: bd08 bab9 3f24 f8be 5b73 fc3d f0bb 49be
00000130: 27e4 3d3e f10e 353d 5e0d 833d a0a3 813d
00000140: a1bc 88be d89e 1ebc 720c 93bd 3a42 1abe
00000150: 4568 1abe 9108 40bd 569b 3ebd a78e a3bd
00000160: 4bea 5bbc 88be 8a3e 8713 903d dd33 58bc
00000170: 1a9a 253d 715f 09be 1257 5c3e 86d4 aebc
00000180: fb43 bb3c 3114 5a3d b628 39be ee95 313d
00000190: b416 0ebd 6454 a93e 21c0 7fbd 2eae 6c3c
000001a0: 55d5 943e e069 553d 8ce2 783e 2538 67bc
000001b0: 9170 45bd 89a9 52be 7e0d 793e 8ecc 383d
000001c0: dca6 e0bc a2b6 513e dbc4 8f3e aba3 013d
000001d0: 70be 1dbe b17b 30bd 72fe a73e 532d 153d
000001e0: 8f1d f13d ab23 a03d 1a60 da3c 65e2 423d
000001f0: 8127 53bc e87f 84bc f565 2cbe dce0 c2bd
00000200: cdef 4a3d a4a6 b0bd 38e1 2d3e dbf4 1fbd
00000210: fad7 973d db9d 9b3d 5ab2 ed3d 71e8 de3d
00000220: 6dde 1f3e 5f93 69bd 324e ae3d bce1 96be
00000230: b087 133e 3562 453d 92ce 623e 5768 603c
00000240: 6d3b 03bd abf3 143e ac86 ddbd 8985 8cbe
00000250: 995f 05bd 0eb7 7dbd 163a 913e fbd5 04be
00000260: ae51 06bc e631 103e 91bf ea3c afc0 cabd
00000270: af0b 33be 82f9 d03d ca52 833d abd5 173e
00000280: 74c2 f1bd efe0 383e 3092 fd3d 0dbd 013e
00000290: e77d 27be 1826 bf3c 6c55 2e3c d873 0a3d
000002a0: 23b0 36be ed16 513e c05f e8bc b546 62bd
000002b0: 5a28 483c 3f18 88bc d6d4 6a3d 44b3 053e
000002c0: e0a3 ee3c 068e fbbc 3ad2 273c e624 953c
000002d0: cd88 673d 179f cc3c 478b 593e 97d2 d4bb
000002e0: 9c8d 02be 4d8a 003e 5a47 33be 104e 0b3d
000002f0: d2c2 4cbd 5210 1dbe 8965 26be 6486 5cbc
00000300: 0732 4cbe a69f a5bd 2593 a6bc 7741 debd
00000310: eb12 2c3e 21dc 4cbe 7b7d efbc e710 a3bc
00000320: dfaf 98bc 109d 78be 9587 783c 5bc2 9dbe
00000330: 96e9 30be 32e8 743e ce01 153d 51fa 0ebe
00000340: 397d 5cbc 15bc 713d dd68 90bd bf44 823c
00000350: bcc5 1fbc 4fe2 83bc 9c4f 8d3d 7b0a 64bd
00000360: 3cba 0c3e 7b75 e7ba b198 5cbd a6c6 a13c
00000370: 35af 1a3d 2886 cb3c fa4e fc3d 5209 c33d
00000380: 3059 27bd 5130 93bd 5f22 8fbd 3c48 a8bd
00000390: 1a81 663d 1e78 c93b e7a2 1abe b246 ae3c
000003a0: ad38 84be 3033 6bbe 2502 8fbe 7622 03be
000003b0: 6d17 813c b0ac e73c 7641 4a3c 12c1 cd3d
000003c0: 9dcd aabd 8ba5 df3c b1be ba3b 2305 67bd
000003d0: 0f49 d5bd 587e 603d 1dd5 fbbd e4a3 333d
000003e0: de82 bfbd af6b 92bc 4580 4c3b fb3e e7bd
000003f0: 8404 2bbd 5b1c 5dbc 41c6 1d3e caf8 203d
0.084155075 -0.28476247 0.13139062 0.14314528 0.39910516 -0.0905389 0.082426585 0.42988557
-0.26242274 0.34209892 0.06230711 0.21714391 0.18832415 0.24010631 -0.07568421 -0.17215683
0.025575358 -0.08384718 0.007999346 0.05328093 0.08129779 0.12400586 -0.0545592 0.39602122
0.040247105 0.13716045 -0.11590591 0.106392615 -0.055617392 -0.027403876 -0.04425298 -0.0942039
0.0959092 0.29541653 -0.093758844 0.01980191 0.082768016 -0.053525906 0.0006146623 -0.13098374
-0.104275115 0.018160012 0.08213419 0.045823038 -0.123145476 -0.20762424 0.01138823 0.05823345
0.020526256 -0.13626641 -0.26792845 -0.10005383 0.1709094 -0.025668388 -0.37626335 0.080222264
0.13138522 -0.17886189 0.23120654 -0.19641818 -0.087621726 -0.0033794502 -0.14305626 0.027251031
0.13256602 0.017363548 0.15785499 0.09970375 -0.27244455 -0.112126864 -0.083714545 -0.09176745
-0.00035483195 -0.48465154 0.1232669 -0.19700599 0.18544064 0.044203702 0.06399034 0.06330037
-0.26706412 -0.009681426 -0.07180108 -0.15064326 -0.15078838 -0.04688317 -0.04653486 -0.07986193
-0.013422559 0.2709849 0.070349745 -0.013195959 0.040430166 -0.13415314 0.2151759 -0.021341573
0.022859564 0.053241912 -0.18081936 0.043355875 -0.03468962 0.33072197 -0.062439088 0.014445825
0.2906901 0.052102923 0.24305171 -0.014112507 -0.048203055 -0.20572485 0.24321553 0.045116954
-0.027423315 0.20479825 0.28079876 0.031650227 -0.15404677 -0.04308671 0.32811314 0.036420178
0.11773216 0.07819303 0.026657153 0.047579188 -0.012887836 -0.016174272 -0.16835769 -0.09515545
0.049545098 -0.08625534 0.16980445 -0.03905187 0.07414241 0.07598468 0.116062835 0.108841784
0.15612192 -0.05702531 0.08511008 -0.29469097 0.1440723 0.04818936 0.22149113 0.013696752
-0.032039095 0.14546077 -0.10816702 -0.2744563 -0.032561872 -0.061942153 0.2836463 -0.12972252
-0.008198185 0.14081535 0.0286558 -0.09900033 -0.17484926 0.1020384 0.06412275 0.14827602
-0.11804667 0.18054555 0.12381399 0.12669773 -0.16356622 0.023333594 0.010640483 0.033801883
-0.17840628 0.20418902 -0.02836597 -0.055243213 0.012216652 -0.016613124 0.057331882 0.13056666
0.029130876 -0.03070737 0.010242993 0.018206071 0.056526948 0.024978204 0.21244536 -0.006494831
-0.12749332 0.12552758 -0.17507687 0.034009993 -0.049990483 -0.15338257 -0.1624967 -0.013459776
-0.19940959 -0.08087091 -0.020333836 -0.1085233 0.16804092 -0.20005848 -0.029234638 -0.01990552
-0.01863855 -0.24278665 0.015169044 -0.30812344 -0.17276606 0.239167 0.036378674 -0.13962676
-0.01345759 0.05901726 -0.07051251 0.015901921 -0.009751733 -0.016099123 0.0689995 -0.055674057
0.13742918 -0.0017658913 -0.053856555 0.019748043 0.037764747 0.024844244 0.12319751 0.09523262
-0.04085654 -0.0718695 -0.06988978 -0.082169026 0.056275465 0.0061483523 -0.15101205 0.021273945
-0.2582449 -0.22968745 -0.27931324 -0.12806115 0.01575824 0.028280586 0.012344709 0.10046591
-0.08339999 0.027300617 0.0056990017 -0.056401383 -0.104143254 0.05480799 -0.122965075 0.04385747
-0.09351133 -0.017873613 0.0031204384 -0.112913094 -0.041752353 -0.01349553 0.15407659 0.039299764

ms.GradM2.ps.a f4 [50]
00000000: c002 c5be af67 c7be 851f 1fbe 762a a2be
00000010: f812 afbe 1888 89be c3c6 b7be f19b 03bf
00000020: 5d6a 77be ba8e b4be f113 bcbe 1c7c d0be
00000030: fe0c 97be 7384 d5be f50e 9dbe 5e9a a7be
00000040: d2ee 80be 6641 bbbd a894 e0be 53a9 64be
00000050: d089 1bbe 4a00 91be f0f5 00be 101a e6be
00000060: 1fcf 38be b913 a5be a847 50be 586f e2be
00000070: f217 09be e349 dcbd c8c2 9fbe 7aff b1be
00000080: 964a 4ebe d9a0 99be f420 a9be 3385 b0be
00000090: aab1 9ebe b300 adbe 2068 97bd 2c74 d9be
000000a0: 34ec 5abe eeab bebd 7197 c1be d093 aabe
000000b0: b0fe 9ebe 5fc5 b5be a15e 23be e438 bbbe
000000c0: 088c bcbe c372 a9be
-0.3847866 -0.38946292 -0.15539367 -0.3167302 -0.3419416 -0.26861644 -0.3589383 -0.5140982
-0.24161668 -0.35265142 -0.36733964 -0.40719688 -0.295021 -0.41702613 -0.30675474 -0.3273496
-0.25182205 -0.09143333 -0.43863416 -0.22330217 -0.1518929 -0.28320533 -0.12593818 -0.4494176
-0.1804776 -0.3224161 -0.20339835 -0.44225574 -0.1338804 -0.1075628 -0.31203294 -0.34765226
-0.2014564 -0.3000553 -0.33032954 -0.34476623 -0.30994922 -0.33789596 -0.07392907 -0.42471445
-0.21379167 -0.09310137 -0.37810853 -0.33315897 -0.31053686 -0.35502145 -0.15954067 -0.36566842
-0.36825585 -0.3309537

ms.GradM2.ps.b f4 [50]
00000000: 1080 17bb 674f 493b 90cd 7b3d 3a38 b3bc
00000010: 54db 58bd 1841 88bc d6b0 343c 1a75 91bc
00000020: 486d 8bbc 9cec 63bc cc82 96bc 2b42 63ba
00000030: d180 e0bc ffb7 693c 287d 72bc b006 3bbc
00000040: 5cdc d7bc 8db3 01bd 75f8 42bc 6555 a2ba
00000050: c9d5 d0bc 220f 8aba c0ba cabc 59a3 b4bc
00000060: 427c 40bb 7022 21bc 9610 a3bc 7113 2ebc
00000070: 06b5 133d cd4f 163d 5153 8dbc c949 e1bc
00000080: 77d9 73bd 8bd7 67bc 3d67 36bd a032 acbc
00000090: 3255 9cbb 0ffc f5bc 7b8d 0abd b20b c8ba
000000a0: 0a25 dbbc 7aa4 04bd 9b34 8abb d81a 65bc
000000b0: 65fb 9dbc 93ba b8bc df04 ccbc a921 b6bc
000000c0: 9513 90bc 7dc4 fabc
-0.0023117103 0.0030717494 0.061475337 -0.021877397 -0.052943543 -0.016632602 0.011028489 -0.017756034
-0.017019883 -0.013911393 -0.018372916 -0.00086692226 -0.027405174 0.0142650595 -0.014800347 -0.011415169
-0.026350193 -0.031665374 -0.011900057 -0.0012385069 -0.025492566 -0.0010533074 -0.024747252 -0.022050546
-0.0029370938 -0.009834871 -0.01990537 -0.010624752 0.03606131 0.036697198 -0.017251642 -0.027501004
-0.059533563 -0.014150511 -0.04453205 -0.021020234 -0.0047708983 -0.030027417 -0.033826333 -0.0015262275
-0.02675106 -0.03238342 -0.004217697 -0.013983451 -0.019284913 -0.022549903 -0.024904666 -0.022232847
-0.017587462 -0.030611271

ms.GradM3.ps.K f4 [32, 50]
00000000: 5096 ce3d c78c 9eb9 527e 0dbb a949 763d
00000010: 900e bc3d 4f1e a9bd 8067 b0bd 6e16 b7bd
00000020: 2ab6 2fbd 7c74 803d aeef c5bb 7ee9 333c
00000030: bad3 ec3d 92fe d13c 8732 14bd efb3 4fbd
00000040: b2a3 88ba 5631 403d e72f e0bc 6233 2bbe
00000050: 3ab6 3f3d 13e8 153e c5d5 e93d 4fd2 de39
00000060: 7c28 973d 1689 b8bd ee73 b73d ca14 25be
00000070: 8b25 e73d 3298 4638 516d 1c3d 2269 583e
00000080: 4215 9a3c f6c2 163d da4b adbd 6684 e2bb
00000090: 4adb e0bd a2f7 0c3d 647b 22bd 02e2 36bd
000000a0: 7959 d23d b6b5 2c3e 16ac d63c c2ee ff3c
000000b0: 7c23 c8b7 1a4f 273d 25f8 543e 0db8 dd3d
000000c0: 0eac 3b3d f87f 493e 035d 613d c0eb 15be
000000d0: 912b 033d 2157 93bd 9716 883d 2114 03be
000000e0: 9469 bdbd fd28 cfbd 18fd 1a3e f121 9a3d
000000f0: 6a97 943c fe16 94bd 15a2 02be c4be 093d
00000100: fb33 e2bd 6418 1dbd 299f cdbd 0be2 2c3e
00000110: 47f3 bebd 448c 87bd fd55 213d c869 6bbd
00000120: ec2c 31bc 5009 18be 6afb 633d 0ecd f53c
00000130: b502 00bd c070 afbc 3d58 aa3c 889c 3038
00000140: cf2c 32bd cd00 e7bc 826d 61bd c7b3 863d
00000150: 70c3 b03d 4bc4 d8bc 1c28 f83c 2fbb 8d3d
00000160: e4b1 a23d 54eb 933e ddc5 67bd b056 033e
00000170: 2e82 abbd c3b1 b3bb 25b0 5db6 b1a6 95bd
00000180: 5da2 cc3d c1d4 2e3e b86c 963d a67a 8b3e
00000190: 4b86 083e ed33 5b3e a5f8 f6bc 9a8f fbbb
000001a0: 4b84 44bc d0a6 523d 30ce 8e3c aa7e 08bd
000001b0: 3753 7bbd 6850 7bbd 9fd2 9a3d 5a08 223e
000001c0: e9e6 db3c fd53 f3bd 7bf7 94bc 6c79 cfbc
000001d0: 3543 fd3b d129 ab3b a4f1 9bbc 1181 ca3b
000001e0: e654 a83d 9445 e6bd 2713 c3bd b15e 2fbe
000001f0: 026c ab3d 9644 2f3e 8fc9 1c3d b9a0 bebc
00000200: 4ea8 123c 39ec 86b5 bb96 e83c 39e6 d53c
00000210: 1536 23bb 41ae 603c dc11 bfbd 353b fe3c
00000220: 15a2 533c da0f efbd 441c f63c 1f6d 453d
00000230: 0163 cb3d 03cd ca3d 3884 823d 0fe1 6e3d
00000240: b99f 7537 4c9b c93c 8305 273e a44d 823e
00000250: 5942 593e 4b88 7e3a ed0d 20be c183 3bbc
00000260: 3fbc c7bc 6812 193c 1608 e33c 12f2 493d
00000270: c107 723d 6410 28bd 0dd8 ad3d 78fc 19bd
00000280: 5800 47bd de0b aabd 02af a0bd 0668 953d
00000290: f8b8 18bd 9125 263d fa3f eabc f707 093c
000002a0: 202d edbd 8cf5 923d c905 833d 90af 533d
000002b0: f944 953d b3b1 2cbe dbe8 943d a7f8 60bd
000002c0: b3d1 cf3d e6d6 f9bd 25a2 873d 4b3b 6fb7
000002d0: b2d8 f83d c159 05bd b474 ac3d 277d f4bc
000002e0: 3227 c33d c77b 07bd e879 92bc 6bfd 82bd
000002f0: bfb2 ec3b 39cd f6bd 8670 923d 138a 2b3e
00000300: ab19 9dbd ecf9 5abc 7e50 2a36 0963 3d3e
00000310: c227 293e 2564 a63b 536e a83d 134c 873d
00000320: 4789 583d 1e3f f4bd 2a8b 893b d9bf 823d
00000330: 77e5 0fba 71e7 9fbd fd0f e03d 3996 6e3c
00000340: 1116 71bc b83e 10be 9871 b33c d7f2 32bd
00000350: 7f9b 0fbd aaa3 64be b7cd 223e d08c d1bd
00000360: 612f 01bc 73c9 0fbe 997c b0bd f1d4 7cbd
00000370: ca00 073d f917 1e3d d64b a53d 9d60 ce3d
00000380: 75e2 cf3c 6760 abbc ba13 99bd 28f3 8a3d
00000390: de0e df3b b228 2937 85e9 43bb 6b3b 70bd
000003a0: 5277 12be 5da0 60bd 98e2 96bc 97b0 77bb
000003b0: 84eb bd3d 299d 093c 3629 393d 66e7 73be
000003c0: 00a3 933d 70f8 5a3e e3a9 2dbd f7dd b3bc
000003d0: 3249 a137 7ff0 babc 2a16 21be e52d f43d
000003e0: 2df2 2e3d 7450 8ebd d0ef 1c3d 8578 4c3d
000003f0: 4414 213e 11ea 0c3d 074e 06bd c7e9 01bc
0.100872636 -0.00030240996 -0.0021590185 0.06012884 0.09182465 -0.08257734 -0.08613491 -0.08939825
-0.042898335 0.06272218 -0.006040535 0.010980962 0.11563821 0.025634084 -0.036181 -0.050708707
-0.0010424762 0.04692205 -0.027366592 -0.1671882 0.046804644 0.1463931 0.114177264 0.00042499832
0.07380769 -0.09010522 0.08957659 -0.16121212 0.11286458 4.734862e-05 0.03819019 0.21133855
0.018808965 0.036807023 -0.08461733 -0.006912756 -0.10979326 0.03441585 -0.039668456 -0.04464913
0.10270972 0.16866192 0.026205104 0.031241778 -2.3858382e-05 0.04084692 0.20797785 0.108261205
0.04581838 0.19677722 0.055020344 -0.14640713 0.03202397 -0.07194353 0.06644934 -0.12800647
-0.09248653 -0.1011524 0.1513561 0.07526005 0.018138606 -0.07230948 -0.12757142 0.033629194
-0.11045071 -0.03835334 -0.10040123 0.16883104 -0.09323745 -0.066185504 0.039388645 -0.057473928
-0.010813933 -0.14847302 0.05565969 0.030005004 -0.03125258 -0.021416068 0.020794028 4.210745e-05
-0.043499764 -0.028198624 -0.055036075 0.065772586 0.08631027 -0.026460787 0.030292563 0.06920468
0.07944086 0.2889048 -0.05658518 0.12826037 -0.08374439 -0.0054838373 -3.3034096e-06 -0.073071845
0.09991906 0.17073347 0.07344955 0.2724201 0.13332479 0.21406527 -0.03014786 -0.0076770307
-0.011994432 0.051428616 0.017432302 -0.03332392 -0.061358657 -0.06135598 0.07559704 0.15823498
0.026843505 -0.11881254 -0.018184414 -0.025326453 0.007728959 0.0052234908 -0.019036122 0.0061799367
0.08219318 -0.1124374 -0.095251374 -0.17125966 0.0837021 0.17116007 0.03827816 -0.023269998
0.00895126 -1.0052528e-06 0.028392186 0.026110755 -0.0024904062 0.01371342 -0.09329578 0.031034091
0.012917061 -0.11672945 0.030042775 0.04819977 0.09930993 0.09902384 0.06372875 0.0583201
1.4640326e-05 0.024610184 0.16310696 0.2544986 0.21216716 0.000970964 -0.15630312 -0.011444987
-0.024381755 0.009342767 0.027713817 0.049303122 0.059089426 -0.041031256 0.08488474 -0.03759429
-0.048584312 -0.08303045 -0.0784588 0.072952315 -0.037285775 0.04056317 -0.02859496 0.008363715
-0.115808725 0.071757406 0.06397588 0.0516811 0.07288546 -0.16864662 0.07270976 -0.054924633
0.10147419 -0.12199192 0.066227235 -1.4259315e-05 0.12150706 -0.0325563 0.08420697 -0.029844834
0.0952896 -0.033077028 -0.017880395 -0.06395992 0.0072234566 -0.12050862 0.071503684 0.1675189
-0.076709114 -0.01336525 2.5378827e-06 0.1849481 0.16519073 0.005077856 0.08224168 0.06606307
0.052865293 -0.11926101 0.004197498 0.06384248 -0.000548921 -0.07807816 0.109405495 0.014562183
-0.014714734 -0.14086425 0.021904752 -0.04368862 -0.035060402 -0.22328058 0.15898786 -0.10231936
-0.007884831 -0.1404169 -0.08617515 -0.061726514 0.032959737 0.03859708 0.08071105 0.10077021
0.025376538 -0.020919992 -0.07474466 0.067846596 0.006807192 1.008266e-05 -0.0029893827 -0.058650415
-0.1430333 -0.054840434 -0.018418595 -0.0037794465 0.09273437 0.008399286 0.045205317 -0.2381874
0.07208824 0.21383834 -0.042398345 -0.021956427 1.922678e-05 -0.022819756 -0.15731111 0.11922816
0.042711426 -0.06948939 0.03831464 0.049919624 0.15730387 0.03440291 -0.032789256 -0.007929272

ms.GradM3.ps.a f4 [50]
00000000: 7eeb 803e adec 3a3e ea93 323e 20fe 8d3d
00000010: af30 0a3e 0e5c 153e 8fa8 b13d e070 3a3e
00000020: 3fcb 353e 4ed3 673e 291a 113e fd43 813e
00000030: 432f 103e 07ef 453e 141f 453e b08f 323e
00000040: bbf2 c63d 7c1a 5e3e 8dd1 ed3d f511 5f3e
00000050: 1d8c 423e 61f9 3d3e c31d ee3d 2783 6c3e
00000060: ddfd 3d3e 508d 4d3e 4b1d 063e 2592 733e
00000070: 9dc4 f63d d2e4 ffb6 cc8a 373e 60af 653e
00000080: 8366 123e 8a46 f23d e01f 153e 691d 293e
00000090: af8f eb3d 2a44 423e 00dd 953d 4124 873e
000000a0: 20a4 783e 5f80 3e3e 91e7 513e f096 cb3d
000000b0: 2c02 96b6 48cd bb3d bfdd 4e3e 9213 503e
000000c0: c297 893e 053e 243e
0.25179666 0.18254347 0.17439237 0.06933236 0.13495134 0.14585897 0.08674728 0.18207121
0.17753313 0.226392 0.14170136 0.25247183 0.14080529 0.19329463 0.19250137 0.17437625
0.09714266 0.2168979 0.11612234 0.21784194 0.18998761 0.18552162 0.1162677 0.23096906
0.18553872 0.20073438 0.13097112 0.23786218 0.1204922 -7.6262304e-06 0.1792404 0.22430182
0.14296918 0.118298605 0.1456294 0.16515125 0.11502015 0.18971315 0.07317543 0.26394847
0.24281359 0.18603657 0.20498492 0.099408984 -4.470601e-06 0.09170014 0.20201777 0.20319965
0.26873595 0.16039284

ms.GradM3.ps.b f4 [50]
00000000: f1cb cebc f295 e3bb 9d7e fdbb f339 3b3c
00000010: e32b aebc fedb 4d3c eb22 263c cc54 4736
00000020: ddaf bfbc 1ed1 8ebc 1af8 c9bc d92b 38b9
00000030: d320 05bc 3b15 cfbc b842 1fbc be6c 453a
00000040: 54f7 fd3b a3e0 f4bc 83c5 45bc 3bc5 0c3d
00000050: 06c2 44bc e125 87bc 53b0 86bc 31d2 863c
00000060: fb76 9bbc a550 76bd 7848 2cbc 3f65 f7bc
00000070: 9dde fdbc 93c8 83bc 7681 91bc 6d06 1dbc
00000080: cc00 bfb9 3d23 a2bc 4456 a7bc d075 71bc
00000090: 7c16 52bb 48e1 033c 3c74 dfbc 2451 78bc
000000a0: b0fc bb3c 5755 d73c e1d6 0cbd 976b 84bc
000000b0: bf15 e5bb d375 44bd f956 18bc a28c 71bd
000000c0: 3bea d3b9 b65a 82bd
-0.025243731 -0.006945365 -0.0077360407 0.01142739 -0.021261161 0.012564657 0.010140161 2.970267e-06
-0.023399288 -0.0174337 -0.024654437 -0.00017563942 -0.008125502 -0.025278678 -0.009720497 0.00075311575
0.007750431 -0.029892271 -0.012071016 0.03436778 -0.012009149 -0.016497554 -0.0164415 0.016457649
-0.018977633 -0.060135502 -0.010515325 -0.030199645 -0.03098994 -0.016086852 -0.017761927 -0.009584052
-0.00036430953 -0.019792194 -0.020426877 -0.014737561 -0.0032056859 0.008049317 -0.027277105 -0.015156064
0.02294764 0.02628581 -0.034384612 -0.016164584 -0.0069911177 -0.04796393 -0.00929808 -0.05897201
-0.0004041957 -0.06364958

ms.GradM4.ps.K f4 [32, 50]
00000000: 1c06 013e c05a 893d 2604 b9be 9873 5a3d
00000010: 8924 a6bc 1a3e 823d fe68 b1bc 46c0 643c
00000020: fa14 c33d 3823 0e3d 4138 8fbc 0c51 f6bb
00000030: 8cf2 6bbd 1fcd a03d eb20 a2bb de48 4d3d
00000040: a705 e2bd 9f18 42be 7c1d 773c d21d 013e
00000050: 88a6 83bd e974 27be 8a9d 903c dbd5 54bd
00000060: 91d3 363e 9683 513e e6d6 52bc f1d8 c33c
00000070: 0627 06be fb8c db3c e5fc 4fbe 168c 2cbe
00000080: 6560 b33c f88a 62ba 5b3d e03c 1dbf f1bd
00000090: 8552 99bb c648 52bb ff16 2c3e c61d d03d
000000a0: 71a8 d53d 8926 573d d1a3 193d 7d6a 113e
000000b0: 1720 9bbc 7df8 74bd 8fb9 58bd abf8 3e3d
000000c0: 6831 4e3e b425 3b3b 5b37 443c 52b9 993d
000000d0: 2041 cc3d 154a 133e 97eb cd3d 30e0 abbc
000000e0: b4d4 05be a39d fbbd 1759 b5bd 533d 02bd
000000f0: 9a1b 4bbd 2af5 67bd ea88 8fbd feb1 58bd
00000100: 17c2 953d 4efb 073e 8a38 093c af0e b2bd
00000110: f840 343e ab94 eabd e13b 8abd 5ca2 89bd
00000120: d7a6 163d 5914 b3bd 0343 3abd f493 24be
00000130: 8cdc 903d 38ab e93d fc86 933d 9895 003e
00000140: 21b8 3d3e 6925 133e a1f6 20be 0790 efbc
00000150: 6b81 fbbd 3b25 abbd f500 bb3d 93ff 83bd
00000160: e109 873d 867b f53c e3de 72be 3d89 18bc
00000170: e68e 15bd bf96 ce3d 0a89 0abc 1e1a 4d3d
00000180: 97a5 04be bc85 72be a8bf aabd 8497 79ba
00000190: f868 c2bd e2e6 a63d 14c6 753d 0db3 fb3c
000001a0: 83bc 0dbe 23b9 213e 8b4e b03d 9559 16bd
000001b0: 28d9 f43c 4b98 5d3e d823 b73d 8329 10bd
000001c0: 7088 d33d 4d99 17bd 87a4 82bd f034 dd3d
000001d0: c1ae 843c 6862 913d 7b51 9abd 3e15 383e
000001e0: 8364 edbd 98f2 903b 1929 423d 2528 5f3d
000001f0: e48a 72be f38b b83d e72f c03d c2b9 943c
00000200: e387 ff3c 661d 47be d4bc 373d ea24 1ebe
00000210: 8a9a 083e 0083 6ebd 7f22 84bd eec6 2d3d
00000220: df2d d7bd 6bf8 c53d 9aa9 d539 2195 d1bd
00000230: 7cf7 193d f9ba bdbd c229 363e ce9a fcbd
00000240: 77ae 28be ae1d f83d 2046 833e a700 b33d
00000250: 9beb 1a3e bd93 dcbc 1376 29be 73d5 c1bd
00000260: c055 b1bd e0f5 3c3d 6296 193a 6476 a2bd
00000270: 580a 81bc d944 2d3d 70d8 b2bd 3697 043e
00000280: 13dc bfbd 9c1c 4e3e c839 afbd 6192 393e
00000290: ea0e 6abd 8abf 5ebe cd5a ef3c b1b4 fdbc
000002a0: e042 313d 4157 57be 0ba9 e0bd 80e6 3b3d
000002b0: c601 f73d 3c8f 2d3d e6c0 7d3d c20c 60bd
000002c0: 0e88 f73d 4e39 96bd 79af 083d 325c a13d
000002d0: bb46 8cbd 867e 41be d77b 16bc 25af 3e3d
000002e0: 45d2 01bb 90ed 8ebd 953c 30bd 1346 453d
000002f0: 7c4d 30be 854b 94bc 36a4 03be 56cc 6c3c
00000300: ce62 803d 3653 afbd b3a9 8ebd c6a7 4e3d
00000310: 5044 473e 522b 6abd bdfd 843d c39f 0ebe
00000320: 23e7 853d 5a31 8cbe 9364 7a3e 481c 613a
00000330: 007a ab3a 9f81 08bd e221 413d 2483 bfbd
00000340: fa0b a7bb 4c2d cdbd fd1c 073e c9cd af3c
00000350: 7e71 c53d 9760 fcbd 3a36 f23d 27e3 423e
00000360: 1c25 28be 95f2 023e 576f be3b 0c76 99bd
00000370: 5bd9 753d e43c a93b f6a1 5f3c 777b b5bd
00000380: 9533 87be 1bbf 0d3c 7c72 a5bd 4f0d f23b
00000390: 09b9 40be f0f9 9e3d 2e5a 543d 19a5 193e
000003a0: 3005 7ebd 3d19 9d3c b575 1cbc b9f4 463d
000003b0: f6e4 a03c f802 f4bc fbc9 013e 9069 a2bd
000003c0: 0541 3a3c 8a3d e6bc 8ada 303e e882 3ebd
000003d0: 7f98 163e 9acf f9bd 6b85 b8bd 398e f6bd
000003e0: f192 dc3d f943 a83d 8e3c 31bd cc8b f9bc
000003f0: 92eb 673d 6743 263e f6d5 813e 98e4 85bc
0.12599987 0.06706762 -0.36135978 0.053332895 -0.020281093 0.06359501 -0.02165651 0.013961857
0.09525485 0.034701556 -0.017482879 -0.0075169858 -0.057604358 0.07851624 -0.004947772 0.05011832
-0.11036234 -0.18954705 0.015082713 0.12609032 -0.06428248 -0.16353191 0.017653245 -0.05196176
0.17854144 0.20460352 -0.012868619 0.023907157 -0.13100824 0.026800623 -0.20311315 -0.16850314
0.02189655 -0.0008641924 0.027373007 -0.1180403 -0.0046790265 -0.0032086833 0.16805647 0.10161929
0.10432518 0.052526984 0.037509743 0.14200778 -0.0189362 -0.05980729 -0.052911337 0.046623867
0.20136034 0.0028556408 0.011976088 0.0750605 0.09973359 0.14383729 0.10054701 -0.020980924
-0.13069421 -0.12285926 -0.08854883 -0.031796765 -0.04958687 -0.05663029 -0.07008536 -0.05290412
0.0731241 0.13279459 0.008375296 -0.08694207 0.17602909 -0.114541374 -0.06749702 -0.06720421
0.036780205 -0.087441154 -0.045474064 -0.16072065 0.07073316 0.114096105 0.072034806 0.12557065
0.18527271 0.1436974 -0.15719081 -0.029243482 -0.12280544 -0.083567105 0.09131042 -0.06445231
0.06593681 0.029966127 -0.23717837 -0.009310064 -0.03651323 0.10087346 -0.008455524 0.050073735
-0.12953793 -0.23683828 -0.08337337 -0.0009521174 -0.094926775 0.08149506 0.060003355 0.030725027
-0.13841443 0.1579328 0.08608731 -0.036706526 0.029888704 0.21640126 0.089423835 -0.03519584
0.10328758 -0.037011433 -0.06379037 0.10801113 0.01619661 0.07098848 -0.075350724 0.17976853
-0.11591437 0.0044234507 0.047402475 0.054481644 -0.23685795 0.09011068 0.09384137 0.018154982
0.031192726 -0.19444808 0.044857815 -0.15443769 0.13340202 -0.0582304 -0.06451892 0.042426042
-0.10506796 0.096665226 0.0004075289 -0.10233522 0.037589535 -0.09264178 0.17789367 -0.12334214
-0.16472803 0.12115036 0.2563944 0.08740359 0.15128939 -0.026925916 -0.16548948 -0.0946454
-0.08658934 0.046132922 0.00058588956 -0.079327375 -0.015752003 0.042301986 -0.087326884 0.12948307
-0.09368148 0.20128101 -0.08555943 0.18122245 -0.05714313 -0.21752754 0.029218102 -0.03096995
0.043276668 -0.21029378 -0.109697424 0.04587412 0.12060885 0.042372927 0.06195154 -0.054699667
0.12086497 -0.07335149 0.03337047 0.07878913 -0.06849428 -0.18895921 -0.009184799 0.04655375
-0.0019809168 -0.06978905 -0.043026526 0.04816253 -0.17217058 -0.018102417 -0.1285561 0.014453014
0.062688455 -0.08560793 -0.06965961 0.05045297 0.19459653 -0.05717022 0.06493709 -0.13928132
0.065382265 -0.27381402 0.24452429 0.0008587283 0.0013082623 -0.03332674 0.047151454 -0.09351185
-0.0050978633 -0.10018405 0.13194652 0.02146043 0.096407875 -0.123231106 0.11826749 0.19031964
-0.16420406 0.1278785 0.0058116126 -0.07493219 0.06002174 0.0051647294 0.013649454 -0.0886144
-0.2640654 0.00865152 -0.08078477 0.0073868404 -0.18820585 0.077625155 0.051843815 0.15004386
-0.062016666 0.019177074 -0.009549548 0.04857323 0.019640427 -0.029786572 0.12674706 -0.07930291
0.011368041 -0.028105516 0.17270866 -0.04651156 0.1470661 -0.121978 -0.090098225 -0.120388456
0.10770214 0.0821609 -0.04327064 -0.030462168 0.05662114 0.1623665 0.25358552 -0.016344354

ms.GradM4.ps.a f4 [50]
00000000: f8f5 edbe bdcd 63be be17 ccbe e7a0 66be
00000010: 883c 3bbe d33c 95be c0b1 2bbe e26b c6be
00000020: 72d6 35be 0dc4 9cbe bc1f 1dbe e3e4 b1be
00000030: f0dc abbe 24dd cdbe be01 afbe f8e9 c6be
00000040: 9548 5dbe 29df b3be eac7 50be de23 49be
00000050: c0aa 03be c7c5 a5be 1c62 83be 636a 6dbe
00000060: 7dc7 9fbe 630c 83be c8ed 96be 3d18 21be
00000070: 92a1 1ebe f3b6 bfbe 80f7 b5be b88b a4be
00000080: b0cd 38be d756 c2bd fe28 54be 333f adbe
00000090: 9ca3 efbd 936a afbe fc3b d2be 039e 88be
000000a0: 0d56 b2be 34a8 b0be a3e3 7bbe b5b1 80be
000000b0: e739 f7bd fbed 8abe 0fd4 c2be d199 a3be
000000c0: ae42 68be ddcd babe
-0.46476722 -0.22246452 -0.39861864 -0.22522317 -0.1828481 -0.29147968 -0.16767025 -0.38754183
-0.17757586 -0.30618325 -0.15344137 -0.3474494 -0.33567 -0.4020778 -0.34181017 -0.3885038
-0.21609719 -0.35131195 -0.20388761 -0.19642588 -0.12858105 -0.32377455 -0.2566079 -0.23185115
-0.31206885 -0.25595388 -0.29478288 -0.15731902 -0.15491322 -0.37444267 -0.3554039 -0.32137847
-0.18047214 -0.0948922 -0.20718762 -0.3383728 -0.11701128 -0.34260997 -0.4106139 -0.26683053
-0.34831277 -0.3450333 -0.24598555 -0.2513558 -0.12071591 -0.2713469 -0.38052413 -0.3195329
-0.22681686 -0.36485186

ms.GradM4.ps.b f4 [50]
00000000: e224 643c 456f f8bc 14b5 debc 2a91 b8ba
00000010: 43d5 923c f98a e2bc b003 933c 97b4 58bb
00000020: c1ef d9bc 3692 e5bb dcf0 a9bc f740 d7bb
00000030: f558 87ba 77d3 4f37 29f8 b8bc 92e9 f7bc
00000040: 13ad 35bc 75cc ecbb 5408 31bc a284 cfbc
00000050: fafb e73a 6229 10bd d6f9 6dbc 2dce 0ebd
00000060: 0221 b8bb b074 bebc 23ee 84bc 67d9 86bc
00000070: d62f dfbb 14f8 d53b 6962 503b 36e7 08bd
00000080: 5a5f a2bc 4a42 14bd 6d39 e5bc 3c0d fdbc
00000090: ea65 e9bc 6f76 8cbc 21cb 193b 905a f5bc
000000a0: 99ca 9ebc 3d0c a8bb c1a4 a33c 4d7d 03bd
000000b0: 88de 863a d21d 76bc 5eb5 a4bc 60ef 80bc
000000c0: 38a5 1fbc e2a3 3fbd
0.013924809 -0.030326495 -0.027185954 -0.0014081348 0.017923957 -0.027654158 0.017946094 -0.0033066624
-0.026603581 -0.007005955 -0.020744734 -0.0065690237 -0.0010326194 1.2387397e-05 -0.02257927 -0.030262742
-0.011088627 -0.0072265216 -0.010805208 -0.025331799 0.0017698996 -0.035195716 -0.014524898 -0.034864593
-0.005619169 -0.023249 -0.016226834 -0.016461087 -0.0068111224 0.0065298174 0.0031796938 -0.033423625
-0.019820858 -0.03619603 -0.027981484 -0.0308901 -0.02849098 -0.017146317 0.0023467022 -0.02995041
-0.019383715 -0.005128412 0.019976022 -0.032101918 0.0010289708 -0.015021758 -0.020106014 -0.015739143
-0.009743981 -0.04678715

ms.GradM5.ps.K f4 [32, 50]
00000000: ab61 823d 36dd e2bd 050d 423e 5782 09be
00000010: 154e 33bc be3d 8f3d 1292 66bc b4c5 003e
00000020: 5388 3a3d a64b 3fbd 6e26 1f3e 5946 dabd
00000030: fa9e b93c 042c b3bd ff17 223d 626c 5abd
00000040: 0a3a d9bd 93e9 323d 92fe d23d ea29 f4bb
00000050: 5136 72bd be46 fe3d e974 ee3d 4144 17be
00000060: 171d 25bc ca6f 683d 7891 b43c 19d7 2f3e
00000070: 4f02 903c 187a 9d3d d335 c7bd ac15 6ebd
00000080: 5f62 3cbd 377a f5bd 0c82 bfbd 4262 233d
00000090: 7ca4 173d 7bfe c9bd ff0e c4bd 7910 713b
000000a0: e403 36be bb1f b6bd 2714 33b9 1b8f 6a3e
000000b0: 60ee 7fbd ab42 233c 8f00 09bd 4197 3bbd
000000c0: 4b24 4b3c 172b 58bd 1a4d 283e 4a3c d8bc
000000d0: bc4b 723d 81f1 1f3d 785f 703d 81f6 fbbd
000000e0: d698 fb3c 7267 f1bd 6bb0 0ebd bed7 c239
000000f0: b693 bf3c fad2 e0bc 4d16 8e3a a38a e1bb
00000100: 85fd 19bd 1018 15be c045 2f3d cb1b 1abe
00000110: 2017 5bbe a743 b03b e2fb afbc 8248 59be
00000120: ddaa 17be f78b 073e b160 583b 0427 f93d
00000130: 7f08 083e f551 1cbd e447 173c 5b88 bbbd
00000140: d546 a63d eee3 db3c 1c8e d13c 1164 ac3d
00000150: 943e 2abe c43d f63d 3205 a5bd 71cd 62bd
00000160: b0e1 c13d f066 683d fb1f 17bd 3b24 5fbd
00000170: ebac d9bd eb72 653d 1458 27be b2ce 8c3c
00000180: 2f6c 293c 30a2 0abe 4c0d 7dbc 2ec7 d03d
00000190: 5717 263d f534 96bd 4dcf fdbd 66e9 3a3d
000001a0: 32c3 b9bd 15ed bd3d 9b8c 883c d5a2 4dbd
000001b0: d0e5 063e 11e5 f2bc e382 fbbd 6312 6ebe
000001c0: 78c5 2dbc 21f3 eb3d f026 023c f4af c83c
000001d0: ddea 07bb 2354 4ebe 641b b7bc d4d8 abbd
000001e0: 338b 6dbd 6108 8ebd 069f 4f3d 40d4 da3d
000001f0: 82c9 e53c 56fb 323c 4ebf 973d f7b5 bcbd
00000200: 0cc9 b03b 6649 76be 1184 9e3d 852d a63d
00000210: 3f9b 53bd 77f6 c83d 5667 1ebe 151b bd3b
00000220: 2fa1 0abd dc34 1abd 477b 37be a8e0 64bd
00000230: e274 c63d 2525 9fbd 516c 1a3e 85ba 44bd
00000240: 6520 0cbd 9196 353c daa7 6bbc c3bd 1abe
00000250: f9f4 693c e8b2 18bd 0e88 31bd 1b88 15be
00000260: dead 213e 60da 1cbd 8ddb 5b3d 4329 a13c
00000270: fb80 b73d a98a 24bd 31c2 48bd 0276 c8bc
00000280: 7060 23bd a1c1 aabc 429d cf3d 69ee e7bc
00000290: f85a 39be fe60 26bd 821e b23d 4c35 bc3d
000002a0: 8529 3c3c e05c 493e 7194 4cbe 51c3 6bbd
000002b0: bb9c d93d 56b1 c93c 16c1 b8bd 18be a9bc
000002c0: 78a2 2cbd aa9c af3d 6ed3 da3c 9edc 8c3d
000002d0: 2bfb 06bd 9aec 803d 668a 343c d5ea bc3d
000002e0: 3fe7 e7bd 3d41 2ebd 66e3 693d e981 123d
000002f0: 65e7 853d 606d 963d b13e 03bd fb89 d03d
00000300: da35 cdbd 4cf3 b8bd 2cb5 5d3c 7499 283c
00000310: b279 a23c 1946 583d a6f0 a0bb bd9f 1fbe
00000320: 3e7a bd3d 14e5 2ebd f1c0 d13b 97aa b3bd
00000330: 023b 323d 2ece 8cbc 9e79 463d 467a 1dbe
00000340: ec48 2b3e 2dde 853c f18b 393e 7f8b 833d
00000350: becb 33bd 4fa1 39be c189 863d 1e8b 96bd
00000360: 1e96 90bd bbce 0f3e 2677 1a3c e425 2cbd
00000370: 7ac8 25be 044f 6ebd 7d74 353b d19f 07bb
00000380: 1b40 ce3c 92fc 4b3b b4c9 70bd f3cc 49bc
00000390: 0410 6bbd 08be 3f3d 0a18 a7bd 1368 9f3d
000003a0: 1885 b53d 5c7c 843d d631 8fbd ed97 aebd
000003b0: b375 c83c 0f60 c63c fdce 79bd 2384 be3d
000003c0: 8edb fd3b b459 f2bd 2352 aa3d 3004 523d
000003d0: 6df6 25be f951 debb 49f8 49bc 2e00 f53c
000003e0: eb4e 90bb e859 933d c272 753d 8ff6 0f3c
000003f0: 4f7a c4bd 65b0 f43c c2dd 063e 6d54 e3bd
0.06366285 -0.11077349 0.18950279 -0.13428627 -0.010943909 0.06994198 -0.014072912 0.12575418
0.045540165 -0.046703003 0.15542004 -0.10657949 0.022658814 -0.0874863 0.039573666 -0.05332602
-0.10606773 0.043679785 0.10302462 -0.0074512856 -0.05913383 0.12415837 0.116433926 -0.1477213
-0.010077736 0.056747235 0.022042021 0.17171897 0.017579226 0.07689303 -0.09727063 -0.058126137
-0.04599225 -0.11986201 -0.09350976 0.039888628 0.0370221 -0.098629914 -0.09573173 0.00367835
-0.17774922 -0.08892771 -0.00017078278 0.22906153 -0.06248319 0.009964625 -0.0334478 -0.045798544
0.01239879 -0.05277547 0.16435662 -0.026395936 0.059154257 0.039048675 0.058684796 -0.12302876
0.030712526 -0.11787309 -0.034836214 0.00037163304 0.023385864 -0.027444351 0.0010840386 -0.006882982
-0.03759529 -0.1455996 0.04279113 -0.15049665 -0.2139554 0.0053791585 -0.021482412 -0.21219066
-0.14811273 0.13236986 0.0033016617 0.12165645 0.13284491 -0.038164098 0.009233449 -0.09156867
0.08118979 0.026842084 0.025580458 0.08417524 -0.16625434 0.120234996 -0.080576316 -0.055371705
0.094668746 0.056738794 -0.036895733 -0.05447791 -0.106286846 0.056017797 -0.16342193 0.017188404
0.010340734 -0.13538432 -0.015445065 0.101942405 0.040549602 -0.073343195 -0.12393055 0.045632742
-0.09070434 0.092737354 0.016668608 -0.050204117 0.13173604 -0.029650243 -0.12280824 -0.23249201
-0.010606162 0.115209825 0.007943854 0.024497963 -0.0020739355 -0.20149283 -0.022351928 -0.08390966
-0.05799408 -0.06935192 0.050688766 0.10685015 0.028050188 0.010924181 0.07409535 -0.092143945
0.0053950604 -0.24051437 0.077400334 0.08114151 -0.051661726 0.098126344 -0.15469107 0.0057710507
-0.033845123 -0.037648067 -0.1791812 -0.05587831 0.096902624 -0.07770757 0.15080382 -0.04802944
-0.03421058 0.011083261 -0.014383281 -0.15111451 0.014279597 -0.037279993 -0.043342642 -0.14602701
0.15788981 -0.038294196 0.053676177 0.019672995 0.08960148 -0.0401713 -0.04901332 -0.024470333
-0.03988689 -0.020844283 0.101374164 -0.028311925 -0.18101108 -0.040619843 0.08697225 0.09189853
0.011484508 0.19664335 -0.19978501 -0.057559315 0.10625597 0.024620693 -0.09021203 -0.020720527
-0.04214713 0.08574803 0.026712146 0.06878017 -0.032954376 0.06295128 0.011019325 0.09224478
-0.113234036 -0.042542685 0.05710163 0.035768423 0.06538276 0.073450804 -0.03204221 0.10182568
-0.10020037 -0.0903078 0.013531964 0.010290492 0.01983342 0.052801225 -0.0049115 -0.15588279
0.092518315 -0.042698935 0.0064011742 -0.08772772 0.043513305 -0.017188158 0.048455827 -0.15378675
0.16727036 0.016341293 0.1811979 0.06423091 -0.043895476 -0.1812794 0.06569243 -0.07350753
-0.070598826 0.14043705 0.009427821 -0.042028323 -0.16189757 -0.058180824 0.002768784 -0.0020694623
0.025177052 0.0031125885 -0.05878611 -0.01231693 -0.05738832 0.046812087 -0.08158882 0.077835225
0.08863276 0.06469032 -0.06991927 -0.08525071 0.024470186 0.024215726 -0.060988415 0.09302547
0.00774712 -0.11833516 0.083164476 0.051273525 -0.16207285 -0.0067846742 -0.012327262 0.029907312
-0.004403939 0.07194883 0.059923895 0.0087868115 -0.09593641 0.029869268 0.13170531 -0.11100087

ms.GradM5.ps.a f4 [50]
00000000: 61b0 423e cd42 393e e334 533e 1dca 4a3e
00000010: 50b0 c83d eb2f 5d3e 5d51 573d 880e 263e
00000020: 921e e33d d398 7e3d d1af 233e ec15 3a3e
00000030: b662 d83d 4deb 323e c2e8 443e 79db 2e3e
00000040: dd20 573e 98b9 733e ab2a 043e 56c3 713e
00000050: 36be 663e 91a6 513e fd73 483e 4bf9 663e
00000060: ecda 863d e2f2 be3d 3988 933d 3fba 803e
00000070: 9f30 173d 5e18 863e 7a73 ae3d 2530 0c3e
00000080: 45a9 833d 11e1 593e 68e8 0c3e 7d40 c13d
00000090: c2f3 233e 64b4 a03d 99e2 2e3e ab01 d63d
000000a0: 7f15 673e 8e6b 3b3e 2316 7b3e 6176 763e
000000b0: c279 843e 63d9 7c3c 1030 d039 1954 123e
000000c0: 3fa6 91b7 70a6 2b3e
0.19012596 0.18091889 0.20625643 0.19803663 0.09799254 0.2160031 0.05256783 0.1621648
0.11089815 0.062157463 0.15985037 0.18172425 0.105657026 0.17472573 0.19229415 0.1707591
0.2100863 0.23801267 0.12906902 0.23609671 0.22533497 0.20473696 0.19575496 0.22556035
0.06584725 0.0932367 0.07203717 0.25142094 0.036911603 0.26190466 0.08518119 0.1369024
0.0642877 0.21277262 0.13760531 0.09436128 0.16010955 0.07846907 0.17078628 0.10449537
0.22566794 0.18302748 0.24520163 0.24068595 0.25874144 0.015432688 0.0003970866 0.14289893
-1.7362761e-05 0.1676271

ms.GradM5.ps.b f4 [50]
00000000: 0f0f 0bbd 7728 cdbb beec 67bc 1081 a0bc
00000010: 7743 d0bc d870 fe3b 4996 f7bc 48bf 5ebc
00000020: f6aa 073c 2a2c f2bc bc64 6ebc 0915 a6bb
00000030: 61ee cdbc 81d2 74bc 54f2 39bc 0840 38bc
00000040: 80af 99bc d4dc ab3b 73d8 c4ba 0aa3 19bc
00000050: 0e6b 83bb 0149 013d 32b5 27b9 7986 dbbb
00000060: 7dcd c43c 568e f5bc 0290 23bd 9115 84bc
00000070: 19a5 12bd 8d86 d3bb 75f0 3cbd 9885 c7bc
00000080: e695 01bd 63aa d9bc 33ca 3f3d c5b0 dcbc
00000090: 359b 07bd a0e5 0cba 5e3c c3bc efa0 dabc
000000a0: cf4b 9739 0242 01bc 6b65 30bc 1c1a 32bc
000000b0: 2cb0 c1bc 1f68 31bd efd2 2fbd 5327 3ebc
000000c0: 27c3 1dbd 3d36 cfbc
-0.033949908 -0.0062609273 -0.014155565 -0.019592792 -0.025422795 0.007764917 -0.030223029 -0.01359541
0.008280506 -0.029562075 -0.014550384 -0.0050684256 -0.025138082 -0.014942766 -0.011349279 -0.011245735
-0.018760443 0.0052448306 -0.001501812 -0.00937725 -0.0040105646 0.031563763 -0.00015993862 -0.00669938
0.024023766 -0.029975098 -0.03993226 -0.016123565 -0.03580198 -0.0064552487 -0.046127755 -0.024355695
-0.031637095 -0.026570505 0.04682369 -0.026939759 -0.033107 -0.0005374793 -0.023832496 -0.026688067
0.00028857446 -0.007889273 -0.010766367 -0.010870483 -0.023643576 -0.04331219 -0.04292577 -0.011606055
-0.03851619 -0.025294418

ms.GradM6.ps.K f4 [32, 50]
00000000: ce2e 073d b4b1 e4bd 63fa 4c3e dfe5 13be
00000010: be6a f0bd 8e18 41bd 76dc 9c3b ad15 8b3d
00000020: 77ed 7fbe d201 91be 7933 49be a20b 2cbd
00000030: 2558 6fbe cc3a 0dbd 8804 6f3d c964 16be
00000040: 72f9 fb3d a9fb 793e d77c 263d 9df0 75bd
00000050: 5b2c d4bd c71a d8bd fc6b 193c c78b 89bd
00000060: f972 1ebe bf08 f6bd 0d16 31be d5c7 ef3d
00000070: f5bd 11be ffc4 5bbe 2c5b d0bd 0c83 16bd
00000080: 3a72 163d c9a0 52be a5e7 2e3d 60ab 55be
00000090: d915 883d 3c6e 823e 8890 123e b3d4 8f3e
000000a0: 9021 aabd df92 9abd f05e e1bd 269d 8a3d
000000b0: 7e90 fa3d 052f 0f3d 728a 5e3e 66b8 aa3d
000000c0: 93f5 35bd d2fc 11be 2cf3 4b3c 4ebf d4bd
000000d0: 3ff3 d8bd 889a eabc 0d1a 883d 5929 b43d
000000e0: 69aa 173d aafa a83d 6c63 f3bd f261 1c3e
000000f0: cdb8 25be a951 d3bc 9dfc 823e c319 fbbc
00000100: cce4 b53d 0bfc 1abe 773a a3bd 2618 8ebd
00000110: 03f6 debd 5448 e53d c636 e1bc 63ee 453e
00000120: 578b 5f3e ab81 0e3d ed02 8c3e 4bd3 063e
00000130: f98a f03d 0797 4cbe 9a93 a6bb 031c 003e
00000140: 1410 243e 6dde 553d f55b ee3d f2f2 e4bd
00000150: 16e2 6bbe 5284 5b3e 907b 4bbe 939f 223d
00000160: b364 4139 42f1 b93c da04 823e 02bb 1abd
00000170: 1791 373e b0d6 82bc cd8e 883e b227 64be
00000180: b4be b4bd 59fd 47bc b260 3cbc 73a7 ae3d
00000190: 3ca1 25be 0b42 94bc 2a91 263e bfc4 7d3e
000001a0: 0432 4e3e 09c8 2d3d c493 deba ef23 26be
000001b0: bac0 cf3d 9bc2 c6bd a480 05bd 49db 223d
000001c0: 1175 efbd e20a a93c 704a 01be 7a1b 6c3e
000001d0: 2648 313d c725 05bd 9106 48be 57a8 8d3e
000001e0: 4b47 033d 5c60 fdbd e904 9cbd 911a d33d
000001f0: 496f d4bd bfe6 3d3d 7da7 cb3c 51f2 1fbe
00000200: beee 2a3e fef6 83bd 9c39 92be 1bd8 0fbd
00000210: f647 22be 8083 b4bd 8524 9a3d 73a9 e2bc
00000220: f356 843d ad65 193e 5e15 5fbd 596f 83bd
00000230: 9599 93be 0cb7 6f3c 0388 8b3b 45fe ae3d
00000240: b0e4 6ebe 5237 25be a898 c13d 7e7b 003e
00000250: 444c 2dbd 2157 b9bb 36a2 7e3d f7da 943c
00000260: e61c 4dbe 2bdb e6bd c8d4 a2b8 a77e 09be
00000270: 10d5 fe3d 23f1 2c3d 7f61 963d 2247 1c3e
00000280: df87 693e e92f bd3c ee0f b83d 0c8f 9cbd
00000290: 31d2 3e3e f3cb 123e b88c 6cbe 6dc1 83bd
000002a0: 0d55 873e 5fd6 35be 2b31 693d 6e17 603d
000002b0: 9625 b53d 746b ecbd bff1 e13d 7ed1 60bd
000002c0: b429 593d 1abf 353e 3931 303b f13e 9abe
000002d0: 2532 983d 7454 4a3c 5d16 0abd dd40 783b
000002e0: 87e2 3fbe f31b 10be b27b a7bd 87b4 d5be
000002f0: e285 11bd 72b3 e2bd a187 0f3e 65b0 fe3c
00000300: f84f 48be 4907 d73b 5619 993e 5840 8a3e
00000310: f14a 0e3e dc43 95bd 337c 483c 8fbf c03d
00000320: 0bb6 de3c 5b0d 35be 6cb5 f7bc b00f 0b3e
00000330: f741 d0be 094d 033c 2a4b e2bd 661c 81be
00000340: fe1b 293e e9ed 1ebe 1a72 5a3c a66a 14bd
00000350: 9ad7 d1bc db65 76bc 3932 ad3e 8867 873c
00000360: d70e 28bd 245f 533d e37c 62be 0f9a 25bc
00000370: f27b 4cbc 12da 193e e11e 7c3e fce8 e8bd
00000380: d6a8 f6bd d76f 9a3d 8b7b 22be 2de1 0b3e
00000390: 632a a8be a1e5 ca3e 1411 f63d cacb 983c
000003a0: 6afd 16bd b89f 6f3e de23 a3b8 4cec ac3d
000003b0: 4a1e 50bd 4a8d 893e e600 9dbd b949 29be
000003c0: afa3 123e 89a3 f73d 7bc3 dcbd 4cee 003e
000003d0: 019b 32be 0c8d edbd 693a 5f3d 9464 203e
000003e0: 9d0a 623e 78f9 153e 5bc4 58bd 9101 37bd
000003f0: 001c d7bd 936b 113e bf1e bc3d 93c1 85be
0.03300362 -0.11166707 0.2001739 -0.14443158 -0.117391095 -0.047142558 0.004787023 0.06791244
-0.2499293 -0.283217 -0.19648542 -0.04200328 -0.23373468 -0.0344799 0.05835393 -0.14686884
0.12303437 0.24412407 0.0406464 -0.06004392 -0.10360023 -0.105519824 0.009364124 -0.067161135
-0.15473546 -0.12013387 -0.17293568 0.11708037 -0.14232619 -0.21461867 -0.1017364 -0.03674607
0.03673003 -0.20569147 0.042701382 -0.20866156 0.06644792 0.25474727 0.14312947 0.28091964
-0.08307183 -0.07547545 -0.11004436 0.06768255 0.12234591 0.03495695 0.217325 0.083359525
-0.04442365 -0.142566 0.012448113 -0.10388051 -0.105932705 -0.02863814 0.06645594 0.08796949
0.03702775 0.082509354 -0.118841976 0.15271738 -0.16183777 -0.025795775 0.25583354 -0.030651933
0.0888153 -0.1513521 -0.07970136 -0.069382 -0.10886767 0.11195436 -0.027491938 0.19329219
0.21830498 0.03479163 0.27345982 0.1316654 0.11745257 -0.19979487 -0.0050835134 0.12510686
0.16021758 0.052214075 0.11638633 -0.11179151 -0.23035464 0.21437195 -0.19871354 0.039702963
0.00018443428 0.022698049 0.25394326 -0.037776 0.17926441 -0.015971512 0.26671448 -0.22280768
-0.08825436 -0.012206399 -0.011497663 0.08528032 -0.16174787 -0.018097898 0.16266313 0.24782084
0.20136267 0.042427097 -0.0016981293 -0.16224645 0.101441815 -0.09705087 -0.032593384 0.039759908
-0.116922505 0.020635072 -0.12626052 0.23057356 0.043281697 -0.03250673 -0.19533755 0.27667496
0.032050412 -0.12371895 -0.07618124 0.103078015 -0.103727885 0.046362635 0.024860138 -0.1561978
0.16692635 -0.064435944 -0.28559577 -0.035118204 -0.15847763 -0.08814144 0.07526497 -0.02766869
0.06461897 0.14980192 -0.054463737 -0.06417722 -0.2882811 0.014631044 0.004258157 0.08544592
-0.23329425 -0.16134384 0.09452945 0.12547109 -0.04230906 -0.0056561385 0.062166415 0.018170817
-0.20030555 -0.11272272 -7.7643956e-05 -0.1342722 0.12442982 0.042222153 0.07342815 0.1526151
0.22805737 0.023094134 0.08987413 -0.076444715 0.18634869 0.14335613 -0.23100555 -0.064333774
0.26432076 -0.17757557 0.056931656 0.054709844 0.088450596 -0.115439326 0.110324375 -0.054887287
0.053018287 0.1774868 0.0026884808 -0.30126145 0.07431439 0.012349237 -0.033712734 0.0037880458
-0.18738757 -0.14073162 -0.0817789 -0.41739294 -0.03552807 -0.11069383 0.14016582 0.03108997
-0.19561756 0.0065621478 0.29902142 0.27002215 0.13895775 -0.07288334 0.012236643 0.09411537
0.027186414 -0.17680876 -0.030237876 0.13580203 -0.40675327 0.008013972 -0.11049493 -0.2521698
0.16514584 -0.15520443 0.013332868 -0.03623452 -0.025615502 -0.015038933 0.3382738 0.01652886
-0.041029777 0.051604405 -0.22117953 -0.010107531 -0.012480723 0.15024593 0.24621154 -0.11372563
-0.12043922 0.07540863 -0.1586744 0.13660116 -0.32844839 0.39628318 0.12014976 0.018651862
-0.03686277 0.23400772 -7.7791265e-05 0.084435076 -0.050810136 0.26865608 -0.07666187 -0.16532029
0.14320253 0.12091739 -0.107794724 0.12590903 -0.17441942 -0.11599168 0.054499064 0.15663368
0.22074361 0.14645946 -0.052921634 -0.04467923 -0.105033875 0.14201193 0.09185552 -0.26124248
